# YOLOv8.0n backbone
nc: 80
scales: # model compound scaling constants, i.e. 'model=yolov8n.yaml' will call yolov8.yaml with scale 'n'
  # [depth, width, max_channels]
  a:[0.30, 0.35, 1024]
  n: [0.30, 0.35, 1024] 
  s: [0.33, 0.50, 1024] 
  m: [0.67, 0.75, 768] 
  l: [1.00, 1.00, 512] 
  x: [1.00, 1.25, 512] 

backbone:
  # [from, repeats, module, args]
  - [ -1, 1, Conv, [ 64, 3, 2 ] ] # 0-P1/2
  - [ -1, 1, Conv, [ 128, 3, 2 ] ] # 1-P2/4
  - [ -1, 3, C2f, [ 128, 2,0.1 ] ]
  - [ -1, 1, Conv, [ 256, 3, 2 ] ] # 3-P3/8
  - [ -1, 6, C2f, [ 256, 2,0.2 ] ]
  - [ -1, 1, Conv, [ 512, 3, 2 ] ] # 5-P4/16
  - [ -1, 6, C2f, [ 512, 4,0.3 ] ]
  - [ -1, 1, Conv, [ 1024, 3, 2 ] ] # 7-P5/32
  - [ -1, 3, C2f, [ 1024, 4,0.4 ] ]
  - [ -1, 1, SPPF, [ 1024, 5 ] ] # 9

# YOLOv8.0n head
head:
  - [ -1, 1, nn.Upsample, [ None, 2, "nearest" ] ]
  - [ [ -1, 6 ], 1, Concat, [ 1 ] ] # cat backbone P4
  - [ -1, 3, C2f, [ 512,2,0.2 ] ] # 12

  - [ -1, 1, nn.Upsample, [ None, 2, "nearest" ] ]
  - [ [ -1, 4 ], 1, Concat, [ 1 ] ] # cat backbone P3
  - [ -1, 3, C2f, [ 256,2,0.2 ] ] # 15 (P3/8-small)

  - [ -1, 1, Conv, [ 256, 3, 2 ] ]
  - [ [ -1, 12 ], 1, Concat, [ 1 ] ] # cat head P4
  - [ -1, 3, C2f, [ 512,2,0.2 ] ] # 18 (P4/16-medium)

  - [ -1, 1, Conv, [ 512, 3, 2 ] ]
  - [ [ -1, 9 ], 1, Concat, [ 1 ] ] # cat head P5
  - [ -1, 3, C2f, [ 1024,2,0.2 ] ] # 21 (P5/32-large)

  - [ [ 15, 18, 21 ], 1, Detect, [ nc ] ] # Detect(P3, P4, P5)
